…
TRAIN:
  AUTO_RESUME: True
  BATCH_SIZE: 16
  CHECKPOINT_CLEAR_NAME_PATTERN: ()
  CHECKPOINT_EPOCH_RESET: False
  CHECKPOINT_FILE_PATH: configs/PD/I3D_8x8_R50.pkl
  CHECKPOINT_INFLATE: False
  CHECKPOINT_PERIOD: 1
  CHECKPOINT_TYPE: caffe2
  DATASET: kinetics
  ENABLE: True
  EVAL_PERIOD: 10
  MIXED_PRECISION: False
X3D:
  BN_LIN5: False
  BOTTLENECK_FACTOR: 1.0
  CHANNELWISE_3x3x3: True
  DEPTH_FACTOR: 1.0
  DIM_C1: 12
  DIM_C5: 2048
  SCALE_RES2: False
  WIDTH_FACTOR: 1.0
[06/19 16:58:03][INFO] misc.py:  183: Model:
ResNet(
  (s1): VideoModelStem(
    (pathway0_stem): ResNetBasicStem(
      (conv): Conv3d(3, 64, kernel_size=[5, 7, 7], stride=[1, 2, 2], padding=[2, 3, 3], bias=False)
      (bn): BatchNorm3d(64, eps=1e-05, momentum=0.1, affine=True, track_running_stats=True)
      (relu): ReLU(inplace=True)
      (pool_layer): MaxPool3d(kernel_size=[1, 3, 3], stride=[1, 2, 2], padding=[0, 1, 1], dilation=1, ceil_mode=False)
    )
  )
  (s2): ResStage(
    (pathway0_res0): ResBlock(
      (branch1): Conv3d(64, 256, kernel_size=(1, 1, 1), stride=[1, 1, 1], bias=False)
      (branch1_bn): BatchNorm3d(256, eps=1e-05, momentum=0.1, affine=True, track_running_stats=True)
      (branch2): BottleneckTransform(
        (a): Conv3d(64, 64, kernel_size=[3, 1, 1], stride=[1, 1, 1], padding=[1, 0, 0], bias=False)
        (a_bn): BatchNorm3d(64, eps=1e-05, momentum=0.1, affine=True, track_running_stats=True)
        (a_relu): ReLU(inplace=True)
        (b): Conv3d(64, 64, kernel_size=[1, 3, 3], stride=[1, 1, 1], padding=[0, 1, 1], dilation=[1, 1, 1], bias=False)
        (b_bn): BatchNorm3d(64, eps=1e-05, momentum=0.1, affine=True, track_running_stats=True)
        (b_relu): ReLU(inplace=True)
        (c): Conv3d(64, 256, kernel_size=[1, 1, 1], stride=[1, 1, 1], padding=[0, 0, 0], bias=False)
        (c_bn): BatchNorm3d(256, eps=1e-05, momentum=0.1, affine=True, track_running_stats=True)
      )
      (relu): ReLU(inplace=True)
    )
    (pathway0_res1): ResBlock(
      (branch2): BottleneckTransform(
        (a): Conv3d(256, 64, kernel_size=[3, 1, 1], stride=[1, 1, 1], padding=[1, 0, 0], bias=False)
        (a_bn): BatchNorm3d(64, eps=1e-05, momentum=0.1, affine=True, track_running_stats=True)
        (a_relu): ReLU(inplace=True)
        (b): Conv3d(64, 64, kernel_size=[1, 3, 3], stride=[1, 1, 1], padding=[0, 1, 1], dilation=[1, 1, 1], bias=False)
        (b_bn): BatchNorm3d(64, eps=1e-05, momentum=0.1, affine=True, track_running_stats=True)
        (b_relu): ReLU(inplace=True)
        (c): Conv3d(64, 256, kernel_size=[1, 1, 1], stride=[1, 1, 1], padding=[0, 0, 0], bias=False)
        (c_bn): BatchNorm3d(256, eps=1e-05, momentum=0.1, affine=True, track_running_stats=True)
      )
      (relu): ReLU(inplace=True)
    )
    (pathway0_res2): ResBlock(
      (branch2): BottleneckTransform(
        (a): Conv3d(256, 64, kernel_size=[3, 1, 1], stride=[1, 1, 1], padding=[1, 0, 0], bias=False)
        (a_bn): BatchNorm3d(64, eps=1e-05, momentum=0.1, affine=True, track_running_stats=True)
        (a_relu): ReLU(inplace=True)
        (b): Conv3d(64, 64, kernel_size=[1, 3, 3], stride=[1, 1, 1], padding=[0, 1, 1], dilation=[1, 1, 1], bias=False)
        (b_bn): BatchNorm3d(64, eps=1e-05, momentum=0.1, affine=True, track_running_stats=True)
        (b_relu): ReLU(inplace=True)
        (c): Conv3d(64, 256, kernel_size=[1, 1, 1], stride=[1, 1, 1], padding=[0, 0, 0], bias=False)
        (c_bn): BatchNorm3d(256, eps=1e-05, momentum=0.1, affine=True, track_running_stats=True)
      )
      (relu): ReLU(inplace=True)
    )
  )
  (pathway0_pool): MaxPool3d(kernel_size=[2, 1, 1], stride=[2, 1, 1], padding=[0, 0, 0], dilation=1, ceil_mode=False)
  (s3): ResStage(
    (pathway0_res0): ResBlock(
      (branch1): Conv3d(256, 512, kernel_size=(1, 1, 1), stride=[1, 2, 2], bias=False)
      (branch1_bn): BatchNorm3d(512, eps=1e-05, momentum=0.1, affine=True, track_running_stats=True)
      (branch2): BottleneckTransform(
        (a): Conv3d(256, 128, kernel_size=[3, 1, 1], stride=[1, 1, 1], padding=[1, 0, 0], bias=False)
        (a_bn): BatchNorm3d(128, eps=1e-05, momentum=0.1, affine=True, track_running_stats=True)
        (a_relu): ReLU(inplace=True)
        (b): Conv3d(128, 128, kernel_size=[1, 3, 3], stride=[1, 2, 2], padding=[0, 1, 1], dilation=[1, 1, 1], bias=False)
        (b_bn): BatchNorm3d(128, eps=1e-05, momentum=0.1, affine=True, track_running_stats=True)
        (b_relu): ReLU(inplace=True)
        (c): Conv3d(128, 512, kernel_size=[1, 1, 1], stride=[1, 1, 1], padding=[0, 0, 0], bias=False)
        (c_bn): BatchNorm3d(512, eps=1e-05, momentum=0.1, affine=True, track_running_stats=True)
      )
      (relu): ReLU(inplace=True)
    )
    (pathway0_res1): ResBlock(
      (branch2): BottleneckTransform(
        (a): Conv3d(512, 128, kernel_size=[1, 1, 1], stride=[1, 1, 1], padding=[0, 0, 0], bias=False)
        (a_bn): BatchNorm3d(128, eps=1e-05, momentum=0.1, affine=True, track_running_stats=True)
        (a_relu): ReLU(inplace=True)
        (b): Conv3d(128, 128, kernel_size=[1, 3, 3], stride=[1, 1, 1], padding=[0, 1, 1], dilation=[1, 1, 1], bias=False)
        (b_bn): BatchNorm3d(128, eps=1e-05, momentum=0.1, affine=True, track_running_stats=True)
        (b_relu): ReLU(inplace=True)
        (c): Conv3d(128, 512, kernel_size=[1, 1, 1], stride=[1, 1, 1], padding=[0, 0, 0], bias=False)
        (c_bn): BatchNorm3d(512, eps=1e-05, momentum=0.1, affine=True, track_running_stats=True)
      )
      (relu): ReLU(inplace=True)
    )
    (pathway0_res2): ResBlock(
      (branch2): BottleneckTransform(
        (a): Conv3d(512, 128, kernel_size=[3, 1, 1], stride=[1, 1, 1], padding=[1, 0, 0], bias=False)
        (a_bn): BatchNorm3d(128, eps=1e-05, momentum=0.1, affine=True, track_running_stats=True)
        (a_relu): ReLU(inplace=True)
        (b): Conv3d(128, 128, kernel_size=[1, 3, 3], stride=[1, 1, 1], padding=[0, 1, 1], dilation=[1, 1, 1], bias=False)
        (b_bn): BatchNorm3d(128, eps=1e-05, momentum=0.1, affine=True, track_running_stats=True)
        (b_relu): ReLU(inplace=True)
        (c): Conv3d(128, 512, kernel_size=[1, 1, 1], stride=[1, 1, 1], padding=[0, 0, 0], bias=False)
        (c_bn): BatchNorm3d(512, eps=1e-05, momentum=0.1, affine=True, track_running_stats=True)
      )
      (relu): ReLU(inplace=True)
    )
    (pathway0_res3): ResBlock(
      (branch2): BottleneckTransform(
        (a): Conv3d(512, 128, kernel_size=[1, 1, 1], stride=[1, 1, 1], padding=[0, 0, 0], bias=False)
        (a_bn): BatchNorm3d(128, eps=1e-05, momentum=0.1, affine=True, track_running_stats=True)
        (a_relu): ReLU(inplace=True)
        (b): Conv3d(128, 128, kernel_size=[1, 3, 3], stride=[1, 1, 1], padding=[0, 1, 1], dilation=[1, 1, 1], bias=False)
        (b_bn): BatchNorm3d(128, eps=1e-05, momentum=0.1, affine=True, track_running_stats=True)
        (b_relu): ReLU(inplace=True)
        (c): Conv3d(128, 512, kernel_size=[1, 1, 1], stride=[1, 1, 1], padding=[0, 0, 0], bias=False)
        (c_bn): BatchNorm3d(512, eps=1e-05, momentum=0.1, affine=True, track_running_stats=True)
      )
      (relu): ReLU(inplace=True)
    )
  )
  (s4): ResStage(
    (pathway0_res0): ResBlock(
      (branch1): Conv3d(512, 1024, kernel_size=(1, 1, 1), stride=[1, 2, 2], bias=False)
      (branch1_bn): BatchNorm3d(1024, eps=1e-05, momentum=0.1, affine=True, track_running_stats=True)
      (branch2): BottleneckTransform(
        (a): Conv3d(512, 256, kernel_size=[3, 1, 1], stride=[1, 1, 1], padding=[1, 0, 0], bias=False)
        (a_bn): BatchNorm3d(256, eps=1e-05, momentum=0.1, affine=True, track_running_stats=True)
        (a_relu): ReLU(inplace=True)
        (b): Conv3d(256, 256, kernel_size=[1, 3, 3], stride=[1, 2, 2], padding=[0, 1, 1], dilation=[1, 1, 1], bias=False)
        (b_bn): BatchNorm3d(256, eps=1e-05, momentum=0.1, affine=True, track_running_stats=True)
        (b_relu): ReLU(inplace=True)
        (c): Conv3d(256, 1024, kernel_size=[1, 1, 1], stride=[1, 1, 1], padding=[0, 0, 0], bias=False)
        (c_bn): BatchNorm3d(1024, eps=1e-05, momentum=0.1, affine=True, track_running_stats=True)
      )
      (relu): ReLU(inplace=True)
    )
    (pathway0_res1): ResBlock(
      (branch2): BottleneckTransform(
        (a): Conv3d(1024, 256, kernel_size=[1, 1, 1], stride=[1, 1, 1], padding=[0, 0, 0], bias=False)
        (a_bn): BatchNorm3d(256, eps=1e-05, momentum=0.1, affine=True, track_running_stats=True)
        (a_relu): ReLU(inplace=True)
        (b): Conv3d(256, 256, kernel_size=[1, 3, 3], stride=[1, 1, 1], padding=[0, 1, 1], dilation=[1, 1, 1], bias=False)
        (b_bn): BatchNorm3d(256, eps=1e-05, momentum=0.1, affine=True, track_running_stats=True)
        (b_relu): ReLU(inplace=True)
        (c): Conv3d(256, 1024, kernel_size=[1, 1, 1], stride=[1, 1, 1], padding=[0, 0, 0], bias=False)
        (c_bn): BatchNorm3d(1024, eps=1e-05, momentum=0.1, affine=True, track_running_stats=True)
      )
      (relu): ReLU(inplace=True)
    )
    (pathway0_res2): ResBlock(
      (branch2): BottleneckTransform(
        (a): Conv3d(1024, 256, kernel_size=[3, 1, 1], stride=[1, 1, 1], padding=[1, 0, 0], bias=False)
        (a_bn): BatchNorm3d(256, eps=1e-05, momentum=0.1, affine=True, track_running_stats=True)
        (a_relu): ReLU(inplace=True)
        (b): Conv3d(256, 256, kernel_size=[1, 3, 3], stride=[1, 1, 1], padding=[0, 1, 1], dilation=[1, 1, 1], bias=False)
        (b_bn): BatchNorm3d(256, eps=1e-05, momentum=0.1, affine=True, track_running_stats=True)
        (b_relu): ReLU(inplace=True)
        (c): Conv3d(256, 1024, kernel_size=[1, 1, 1], stride=[1, 1, 1], padding=[0, 0, 0], bias=False)
        (c_bn): BatchNorm3d(1024, eps=1e-05, momentum=0.1, affine=True, track_running_stats=True)
      )
      (relu): ReLU(inplace=True)
    )
    (pathway0_res3): ResBlock(
      (branch2): BottleneckTransform(
        (a): Conv3d(1024, 256, kernel_size=[1, 1, 1], stride=[1, 1, 1], padding=[0, 0, 0], bias=False)
        (a_bn): BatchNorm3d(256, eps=1e-05, momentum=0.1, affine=True, track_running_stats=True)
        (a_relu): ReLU(inplace=True)
        (b): Conv3d(256, 256, kernel_size=[1, 3, 3], stride=[1, 1, 1], padding=[0, 1, 1], dilation=[1, 1, 1], bias=False)
        (b_bn): BatchNorm3d(256, eps=1e-05, momentum=0.1, affine=True, track_running_stats=True)
        (b_relu): ReLU(inplace=True)
        (c): Conv3d(256, 1024, kernel_size=[1, 1, 1], stride=[1, 1, 1], padding=[0, 0, 0], bias=False)
        (c_bn): BatchNorm3d(1024, eps=1e-05, momentum=0.1, affine=True, track_running_stats=True)
      )
      (relu): ReLU(inplace=True)
    )
    (pathway0_res4): ResBlock(
      (branch2): BottleneckTransform(
        (a): Conv3d(1024, 256, kernel_size=[3, 1, 1], stride=[1, 1, 1], padding=[1, 0, 0], bias=False)
        (a_bn): BatchNorm3d(256, eps=1e-05, momentum=0.1, affine=True, track_running_stats=True)
        (a_relu): ReLU(inplace=True)
        (b): Conv3d(256, 256, kernel_size=[1, 3, 3], stride=[1, 1, 1], padding=[0, 1, 1], dilation=[1, 1, 1], bias=False)
        (b_bn): BatchNorm3d(256, eps=1e-05, momentum=0.1, affine=True, track_running_stats=True)
        (b_relu): ReLU(inplace=True)
        (c): Conv3d(256, 1024, kernel_size=[1, 1, 1], stride=[1, 1, 1], padding=[0, 0, 0], bias=False)
        (c_bn): BatchNorm3d(1024, eps=1e-05, momentum=0.1, affine=True, track_running_stats=True)
      )
      (relu): ReLU(inplace=True)
    )
    (pathway0_res5): ResBlock(
      (branch2): BottleneckTransform(
        (a): Conv3d(1024, 256, kernel_size=[1, 1, 1], stride=[1, 1, 1], padding=[0, 0, 0], bias=False)
        (a_bn): BatchNorm3d(256, eps=1e-05, momentum=0.1, affine=True, track_running_stats=True)
        (a_relu): ReLU(inplace=True)
        (b): Conv3d(256, 256, kernel_size=[1, 3, 3], stride=[1, 1, 1], padding=[0, 1, 1], dilation=[1, 1, 1], bias=False)
        (b_bn): BatchNorm3d(256, eps=1e-05, momentum=0.1, affine=True, track_running_stats=True)
        (b_relu): ReLU(inplace=True)
        (c): Conv3d(256, 1024, kernel_size=[1, 1, 1], stride=[1, 1, 1], padding=[0, 0, 0], bias=False)
        (c_bn): BatchNorm3d(1024, eps=1e-05, momentum=0.1, affine=True, track_running_stats=True)
      )
      (relu): ReLU(inplace=True)
    )
  )
  (s5): ResStage(
    (pathway0_res0): ResBlock(
      (branch1): Conv3d(1024, 2048, kernel_size=(1, 1, 1), stride=[1, 2, 2], bias=False)
      (branch1_bn): BatchNorm3d(2048, eps=1e-05, momentum=0.1, affine=True, track_running_stats=True)
      (branch2): BottleneckTransform(
        (a): Conv3d(1024, 512, kernel_size=[1, 1, 1], stride=[1, 1, 1], padding=[0, 0, 0], bias=False)
        (a_bn): BatchNorm3d(512, eps=1e-05, momentum=0.1, affine=True, track_running_stats=True)
        (a_relu): ReLU(inplace=True)
        (b): Conv3d(512, 512, kernel_size=[1, 3, 3], stride=[1, 2, 2], padding=[0, 1, 1], dilation=[1, 1, 1], bias=False)
        (b_bn): BatchNorm3d(512, eps=1e-05, momentum=0.1, affine=True, track_running_stats=True)
        (b_relu): ReLU(inplace=True)
        (c): Conv3d(512, 2048, kernel_size=[1, 1, 1], stride=[1, 1, 1], padding=[0, 0, 0], bias=False)
        (c_bn): BatchNorm3d(2048, eps=1e-05, momentum=0.1, affine=True, track_running_stats=True)
      )
      (relu): ReLU(inplace=True)
    )
    (pathway0_res1): ResBlock(
      (branch2): BottleneckTransform(
        (a): Conv3d(2048, 512, kernel_size=[3, 1, 1], stride=[1, 1, 1], padding=[1, 0, 0], bias=False)
        (a_bn): BatchNorm3d(512, eps=1e-05, momentum=0.1, affine=True, track_running_stats=True)
        (a_relu): ReLU(inplace=True)
        (b): Conv3d(512, 512, kernel_size=[1, 3, 3], stride=[1, 1, 1], padding=[0, 1, 1], dilation=[1, 1, 1], bias=False)
        (b_bn): BatchNorm3d(512, eps=1e-05, momentum=0.1, affine=True, track_running_stats=True)
        (b_relu): ReLU(inplace=True)
        (c): Conv3d(512, 2048, kernel_size=[1, 1, 1], stride=[1, 1, 1], padding=[0, 0, 0], bias=False)
        (c_bn): BatchNorm3d(2048, eps=1e-05, momentum=0.1, affine=True, track_running_stats=True)
      )
      (relu): ReLU(inplace=True)
    )
    (pathway0_res2): ResBlock(
      (branch2): BottleneckTransform(
        (a): Conv3d(2048, 512, kernel_size=[1, 1, 1], stride=[1, 1, 1], padding=[0, 0, 0], bias=False)
        (a_bn): BatchNorm3d(512, eps=1e-05, momentum=0.1, affine=True, track_running_stats=True)
        (a_relu): ReLU(inplace=True)
        (b): Conv3d(512, 512, kernel_size=[1, 3, 3], stride=[1, 1, 1], padding=[0, 1, 1], dilation=[1, 1, 1], bias=False)
        (b_bn): BatchNorm3d(512, eps=1e-05, momentum=0.1, affine=True, track_running_stats=True)
        (b_relu): ReLU(inplace=True)
        (c): Conv3d(512, 2048, kernel_size=[1, 1, 1], stride=[1, 1, 1], padding=[0, 0, 0], bias=False)
        (c_bn): BatchNorm3d(2048, eps=1e-05, momentum=0.1, affine=True, track_running_stats=True)
      )
      (relu): ReLU(inplace=True)
    )
  )
  (head): ResNetBasicHead(
    (predictors): ModuleList()
    (pathway0_avgpool): AvgPool3d(kernel_size=[4, 7, 7], stride=1, padding=0)
    (dropout): Dropout(p=0.5, inplace=False)
    (projection): Linear(in_features=2048, out_features=10, bias=True)
    (act): Softmax(dim=4)
  )
)
[06/19 16:58:03][INFO] misc.py:  184: Params: 27,244,362
[06/19 16:58:03][INFO] misc.py:  185: Mem: 1.6670198440551758 MB
[06/19 16:58:04][WARNING] jit_analysis.py:  499: Unsupported operator aten::max_pool3d encountered 2 time(s)
[06/19 16:58:04][WARNING] jit_analysis.py:  499: Unsupported operator aten::add encountered 16 time(s)
…
