…
  NUM_SPATIAL_CROPS: 1
  SAVE_RESULTS_PATH: 
TRAIN:
  AUTO_RESUME: True
  BATCH_SIZE: 16
  CHECKPOINT_CLEAR_NAME_PATTERN: ()
  CHECKPOINT_EPOCH_RESET: False
  CHECKPOINT_FILE_PATH: configs/PD/I3D_8x8_R50.pkl
  CHECKPOINT_INFLATE: False
  CHECKPOINT_PERIOD: 10
  CHECKPOINT_TYPE: caffe2
  DATASET: kinetics
  ENABLE: True
  EVAL_PERIOD: 10
  MIXED_PRECISION: False
X3D:
  BN_LIN5: False
  BOTTLENECK_FACTOR: 1.0
  CHANNELWISE_3x3x3: True
  DEPTH_FACTOR: 1.0
  DIM_C1: 12
  DIM_C5: 2048
  SCALE_RES2: False
  WIDTH_FACTOR: 1.0
[06/19 19:09:20][INFO] misc.py:  183: Model:
MViT(
  (patch_embed): PatchEmbed(
    (proj): Conv3d(3, 96, kernel_size=[3, 7, 7], stride=[2, 4, 4], padding=[1, 3, 3])
  )
  (blocks): ModuleList(
    (0): MultiScaleBlock(
      (norm1): LayerNorm((96,), eps=1e-06, elementwise_affine=True)
      (attn): MultiScaleAttention(
        (q): Linear(in_features=96, out_features=96, bias=True)
        (k): Linear(in_features=96, out_features=96, bias=True)
        (v): Linear(in_features=96, out_features=96, bias=True)
        (proj): Linear(in_features=96, out_features=96, bias=True)
        (pool_k): Conv3d(96, 96, kernel_size=[3, 3, 3], stride=[1, 8, 8], padding=[1, 1, 1], groups=96, bias=False)
        (norm_k): LayerNorm((96,), eps=1e-05, elementwise_affine=True)
        (pool_v): Conv3d(96, 96, kernel_size=[3, 3, 3], stride=[1, 8, 8], padding=[1, 1, 1], groups=96, bias=False)
        (norm_v): LayerNorm((96,), eps=1e-05, elementwise_affine=True)
      )
      (drop_path): Identity()
      (norm2): LayerNorm((96,), eps=1e-06, elementwise_affine=True)
      (mlp): Mlp(
        (fc1): Linear(in_features=96, out_features=384, bias=True)
        (act): GELU()
        (fc2): Linear(in_features=384, out_features=192, bias=True)
      )
      (proj): Linear(in_features=96, out_features=192, bias=True)
    )
    (1): MultiScaleBlock(
      (norm1): LayerNorm((192,), eps=1e-06, elementwise_affine=True)
      (attn): MultiScaleAttention(
        (q): Linear(in_features=192, out_features=192, bias=True)
        (k): Linear(in_features=192, out_features=192, bias=True)
        (v): Linear(in_features=192, out_features=192, bias=True)
        (proj): Linear(in_features=192, out_features=192, bias=True)
        (pool_q): Conv3d(96, 96, kernel_size=[3, 3, 3], stride=[1, 2, 2], padding=[1, 1, 1], groups=96, bias=False)
        (norm_q): LayerNorm((96,), eps=1e-05, elementwise_affine=True)
        (pool_k): Conv3d(96, 96, kernel_size=[3, 3, 3], stride=[1, 4, 4], padding=[1, 1, 1], groups=96, bias=False)
        (norm_k): LayerNorm((96,), eps=1e-05, elementwise_affine=True)
        (pool_v): Conv3d(96, 96, kernel_size=[3, 3, 3], stride=[1, 4, 4], padding=[1, 1, 1], groups=96, bias=False)
        (norm_v): LayerNorm((96,), eps=1e-05, elementwise_affine=True)
      )
      (drop_path): DropPath()
      (norm2): LayerNorm((192,), eps=1e-06, elementwise_affine=True)
      (mlp): Mlp(
        (fc1): Linear(in_features=192, out_features=768, bias=True)
        (act): GELU()
        (fc2): Linear(in_features=768, out_features=192, bias=True)
      )
      (pool_skip): MaxPool3d(kernel_size=[1, 3, 3], stride=[1, 2, 2], padding=[0, 1, 1], dilation=1, ceil_mode=False)
    )
    (2): MultiScaleBlock(
      (norm1): LayerNorm((192,), eps=1e-06, elementwise_affine=True)
      (attn): MultiScaleAttention(
        (q): Linear(in_features=192, out_features=192, bias=True)
        (k): Linear(in_features=192, out_features=192, bias=True)
        (v): Linear(in_features=192, out_features=192, bias=True)
        (proj): Linear(in_features=192, out_features=192, bias=True)
        (pool_k): Conv3d(96, 96, kernel_size=[3, 3, 3], stride=[1, 4, 4], padding=[1, 1, 1], groups=96, bias=False)
        (norm_k): LayerNorm((96,), eps=1e-05, elementwise_affine=True)
        (pool_v): Conv3d(96, 96, kernel_size=[3, 3, 3], stride=[1, 4, 4], padding=[1, 1, 1], groups=96, bias=False)
        (norm_v): LayerNorm((96,), eps=1e-05, elementwise_affine=True)
      )
      (drop_path): DropPath()
      (norm2): LayerNorm((192,), eps=1e-06, elementwise_affine=True)
      (mlp): Mlp(
        (fc1): Linear(in_features=192, out_features=768, bias=True)
        (act): GELU()
        (fc2): Linear(in_features=768, out_features=384, bias=True)
      )
      (proj): Linear(in_features=192, out_features=384, bias=True)
    )
    (3): MultiScaleBlock(
      (norm1): LayerNorm((384,), eps=1e-06, elementwise_affine=True)
      (attn): MultiScaleAttention(
        (q): Linear(in_features=384, out_features=384, bias=True)
        (k): Linear(in_features=384, out_features=384, bias=True)
        (v): Linear(in_features=384, out_features=384, bias=True)
        (proj): Linear(in_features=384, out_features=384, bias=True)
        (pool_q): Conv3d(96, 96, kernel_size=[3, 3, 3], stride=[1, 2, 2], padding=[1, 1, 1], groups=96, bias=False)
        (norm_q): LayerNorm((96,), eps=1e-05, elementwise_affine=True)
        (pool_k): Conv3d(96, 96, kernel_size=[3, 3, 3], stride=[1, 2, 2], padding=[1, 1, 1], groups=96, bias=False)
        (norm_k): LayerNorm((96,), eps=1e-05, elementwise_affine=True)
        (pool_v): Conv3d(96, 96, kernel_size=[3, 3, 3], stride=[1, 2, 2], padding=[1, 1, 1], groups=96, bias=False)
        (norm_v): LayerNorm((96,), eps=1e-05, elementwise_affine=True)
      )
      (drop_path): DropPath()
      (norm2): LayerNorm((384,), eps=1e-06, elementwise_affine=True)
      (mlp): Mlp(
        (fc1): Linear(in_features=384, out_features=1536, bias=True)
        (act): GELU()
        (fc2): Linear(in_features=1536, out_features=384, bias=True)
      )
      (pool_skip): MaxPool3d(kernel_size=[1, 3, 3], stride=[1, 2, 2], padding=[0, 1, 1], dilation=1, ceil_mode=False)
    )
    (4): MultiScaleBlock(
      (norm1): LayerNorm((384,), eps=1e-06, elementwise_affine=True)
      (attn): MultiScaleAttention(
        (q): Linear(in_features=384, out_features=384, bias=True)
        (k): Linear(in_features=384, out_features=384, bias=True)
        (v): Linear(in_features=384, out_features=384, bias=True)
        (proj): Linear(in_features=384, out_features=384, bias=True)
        (pool_k): Conv3d(96, 96, kernel_size=[3, 3, 3], stride=[1, 2, 2], padding=[1, 1, 1], groups=96, bias=False)
        (norm_k): LayerNorm((96,), eps=1e-05, elementwise_affine=True)
        (pool_v): Conv3d(96, 96, kernel_size=[3, 3, 3], stride=[1, 2, 2], padding=[1, 1, 1], groups=96, bias=False)
        (norm_v): LayerNorm((96,), eps=1e-05, elementwise_affine=True)
      )
      (drop_path): DropPath()
      (norm2): LayerNorm((384,), eps=1e-06, elementwise_affine=True)
      (mlp): Mlp(
        (fc1): Linear(in_features=384, out_features=1536, bias=True)
        (act): GELU()
        (fc2): Linear(in_features=1536, out_features=384, bias=True)
      )
    )
    (5): MultiScaleBlock(
      (norm1): LayerNorm((384,), eps=1e-06, elementwise_affine=True)
      (attn): MultiScaleAttention(
        (q): Linear(in_features=384, out_features=384, bias=True)
        (k): Linear(in_features=384, out_features=384, bias=True)
        (v): Linear(in_features=384, out_features=384, bias=True)
        (proj): Linear(in_features=384, out_features=384, bias=True)
        (pool_k): Conv3d(96, 96, kernel_size=[3, 3, 3], stride=[1, 2, 2], padding=[1, 1, 1], groups=96, bias=False)
        (norm_k): LayerNorm((96,), eps=1e-05, elementwise_affine=True)
        (pool_v): Conv3d(96, 96, kernel_size=[3, 3, 3], stride=[1, 2, 2], padding=[1, 1, 1], groups=96, bias=False)
        (norm_v): LayerNorm((96,), eps=1e-05, elementwise_affine=True)
      )
      (drop_path): DropPath()
      (norm2): LayerNorm((384,), eps=1e-06, elementwise_affine=True)
      (mlp): Mlp(
        (fc1): Linear(in_features=384, out_features=1536, bias=True)
        (act): GELU()
        (fc2): Linear(in_features=1536, out_features=384, bias=True)
      )
    )
    (6): MultiScaleBlock(
      (norm1): LayerNorm((384,), eps=1e-06, elementwise_affine=True)
      (attn): MultiScaleAttention(
        (q): Linear(in_features=384, out_features=384, bias=True)
        (k): Linear(in_features=384, out_features=384, bias=True)
        (v): Linear(in_features=384, out_features=384, bias=True)
        (proj): Linear(in_features=384, out_features=384, bias=True)
        (pool_k): Conv3d(96, 96, kernel_size=[3, 3, 3], stride=[1, 2, 2], padding=[1, 1, 1], groups=96, bias=False)
        (norm_k): LayerNorm((96,), eps=1e-05, elementwise_affine=True)
        (pool_v): Conv3d(96, 96, kernel_size=[3, 3, 3], stride=[1, 2, 2], padding=[1, 1, 1], groups=96, bias=False)
        (norm_v): LayerNorm((96,), eps=1e-05, elementwise_affine=True)
      )
      (drop_path): DropPath()
      (norm2): LayerNorm((384,), eps=1e-06, elementwise_affine=True)
      (mlp): Mlp(
        (fc1): Linear(in_features=384, out_features=1536, bias=True)
        (act): GELU()
        (fc2): Linear(in_features=1536, out_features=384, bias=True)
      )
    )
    (7): MultiScaleBlock(
      (norm1): LayerNorm((384,), eps=1e-06, elementwise_affine=True)
      (attn): MultiScaleAttention(
        (q): Linear(in_features=384, out_features=384, bias=True)
        (k): Linear(in_features=384, out_features=384, bias=True)
        (v): Linear(in_features=384, out_features=384, bias=True)
        (proj): Linear(in_features=384, out_features=384, bias=True)
        (pool_k): Conv3d(96, 96, kernel_size=[3, 3, 3], stride=[1, 2, 2], padding=[1, 1, 1], groups=96, bias=False)
        (norm_k): LayerNorm((96,), eps=1e-05, elementwise_affine=True)
        (pool_v): Conv3d(96, 96, kernel_size=[3, 3, 3], stride=[1, 2, 2], padding=[1, 1, 1], groups=96, bias=False)
        (norm_v): LayerNorm((96,), eps=1e-05, elementwise_affine=True)
      )
      (drop_path): DropPath()
      (norm2): LayerNorm((384,), eps=1e-06, elementwise_affine=True)
      (mlp): Mlp(
        (fc1): Linear(in_features=384, out_features=1536, bias=True)
        (act): GELU()
        (fc2): Linear(in_features=1536, out_features=384, bias=True)
      )
    )
    (8): MultiScaleBlock(
      (norm1): LayerNorm((384,), eps=1e-06, elementwise_affine=True)
      (attn): MultiScaleAttention(
        (q): Linear(in_features=384, out_features=384, bias=True)
        (k): Linear(in_features=384, out_features=384, bias=True)
        (v): Linear(in_features=384, out_features=384, bias=True)
        (proj): Linear(in_features=384, out_features=384, bias=True)
        (pool_k): Conv3d(96, 96, kernel_size=[3, 3, 3], stride=[1, 2, 2], padding=[1, 1, 1], groups=96, bias=False)
        (norm_k): LayerNorm((96,), eps=1e-05, elementwise_affine=True)
        (pool_v): Conv3d(96, 96, kernel_size=[3, 3, 3], stride=[1, 2, 2], padding=[1, 1, 1], groups=96, bias=False)
        (norm_v): LayerNorm((96,), eps=1e-05, elementwise_affine=True)
      )
      (drop_path): DropPath()
      (norm2): LayerNorm((384,), eps=1e-06, elementwise_affine=True)
      (mlp): Mlp(
        (fc1): Linear(in_features=384, out_features=1536, bias=True)
        (act): GELU()
        (fc2): Linear(in_features=1536, out_features=384, bias=True)
      )
    )
    (9): MultiScaleBlock(
      (norm1): LayerNorm((384,), eps=1e-06, elementwise_affine=True)
      (attn): MultiScaleAttention(
        (q): Linear(in_features=384, out_features=384, bias=True)
        (k): Linear(in_features=384, out_features=384, bias=True)
        (v): Linear(in_features=384, out_features=384, bias=True)
        (proj): Linear(in_features=384, out_features=384, bias=True)
        (pool_k): Conv3d(96, 96, kernel_size=[3, 3, 3], stride=[1, 2, 2], padding=[1, 1, 1], groups=96, bias=False)
        (norm_k): LayerNorm((96,), eps=1e-05, elementwise_affine=True)
        (pool_v): Conv3d(96, 96, kernel_size=[3, 3, 3], stride=[1, 2, 2], padding=[1, 1, 1], groups=96, bias=False)
        (norm_v): LayerNorm((96,), eps=1e-05, elementwise_affine=True)
      )
      (drop_path): DropPath()
      (norm2): LayerNorm((384,), eps=1e-06, elementwise_affine=True)
      (mlp): Mlp(
        (fc1): Linear(in_features=384, out_features=1536, bias=True)
        (act): GELU()
        (fc2): Linear(in_features=1536, out_features=384, bias=True)
      )
    )
    (10): MultiScaleBlock(
      (norm1): LayerNorm((384,), eps=1e-06, elementwise_affine=True)
      (attn): MultiScaleAttention(
        (q): Linear(in_features=384, out_features=384, bias=True)
        (k): Linear(in_features=384, out_features=384, bias=True)
        (v): Linear(in_features=384, out_features=384, bias=True)
        (proj): Linear(in_features=384, out_features=384, bias=True)
        (pool_k): Conv3d(96, 96, kernel_size=[3, 3, 3], stride=[1, 2, 2], padding=[1, 1, 1], groups=96, bias=False)
        (norm_k): LayerNorm((96,), eps=1e-05, elementwise_affine=True)
        (pool_v): Conv3d(96, 96, kernel_size=[3, 3, 3], stride=[1, 2, 2], padding=[1, 1, 1], groups=96, bias=False)
        (norm_v): LayerNorm((96,), eps=1e-05, elementwise_affine=True)
      )
      (drop_path): DropPath()
      (norm2): LayerNorm((384,), eps=1e-06, elementwise_affine=True)
      (mlp): Mlp(
        (fc1): Linear(in_features=384, out_features=1536, bias=True)
        (act): GELU()
        (fc2): Linear(in_features=1536, out_features=384, bias=True)
      )
    )
    (11): MultiScaleBlock(
      (norm1): LayerNorm((384,), eps=1e-06, elementwise_affine=True)
      (attn): MultiScaleAttention(
        (q): Linear(in_features=384, out_features=384, bias=True)
        (k): Linear(in_features=384, out_features=384, bias=True)
        (v): Linear(in_features=384, out_features=384, bias=True)
        (proj): Linear(in_features=384, out_features=384, bias=True)
        (pool_k): Conv3d(96, 96, kernel_size=[3, 3, 3], stride=[1, 2, 2], padding=[1, 1, 1], groups=96, bias=False)
        (norm_k): LayerNorm((96,), eps=1e-05, elementwise_affine=True)
        (pool_v): Conv3d(96, 96, kernel_size=[3, 3, 3], stride=[1, 2, 2], padding=[1, 1, 1], groups=96, bias=False)
        (norm_v): LayerNorm((96,), eps=1e-05, elementwise_affine=True)
      )
      (drop_path): DropPath()
      (norm2): LayerNorm((384,), eps=1e-06, elementwise_affine=True)
      (mlp): Mlp(
        (fc1): Linear(in_features=384, out_features=1536, bias=True)
        (act): GELU()
        (fc2): Linear(in_features=1536, out_features=384, bias=True)
      )
    )
    (12): MultiScaleBlock(
      (norm1): LayerNorm((384,), eps=1e-06, elementwise_affine=True)
      (attn): MultiScaleAttention(
        (q): Linear(in_features=384, out_features=384, bias=True)
        (k): Linear(in_features=384, out_features=384, bias=True)
        (v): Linear(in_features=384, out_features=384, bias=True)
        (proj): Linear(in_features=384, out_features=384, bias=True)
        (pool_k): Conv3d(96, 96, kernel_size=[3, 3, 3], stride=[1, 2, 2], padding=[1, 1, 1], groups=96, bias=False)
        (norm_k): LayerNorm((96,), eps=1e-05, elementwise_affine=True)
        (pool_v): Conv3d(96, 96, kernel_size=[3, 3, 3], stride=[1, 2, 2], padding=[1, 1, 1], groups=96, bias=False)
        (norm_v): LayerNorm((96,), eps=1e-05, elementwise_affine=True)
      )
      (drop_path): DropPath()
      (norm2): LayerNorm((384,), eps=1e-06, elementwise_affine=True)
      (mlp): Mlp(
        (fc1): Linear(in_features=384, out_features=1536, bias=True)
        (act): GELU()
        (fc2): Linear(in_features=1536, out_features=384, bias=True)
      )
    )
    (13): MultiScaleBlock(
      (norm1): LayerNorm((384,), eps=1e-06, elementwise_affine=True)
      (attn): MultiScaleAttention(
        (q): Linear(in_features=384, out_features=384, bias=True)
        (k): Linear(in_features=384, out_features=384, bias=True)
        (v): Linear(in_features=384, out_features=384, bias=True)
        (proj): Linear(in_features=384, out_features=384, bias=True)
        (pool_k): Conv3d(96, 96, kernel_size=[3, 3, 3], stride=[1, 2, 2], padding=[1, 1, 1], groups=96, bias=False)
        (norm_k): LayerNorm((96,), eps=1e-05, elementwise_affine=True)
        (pool_v): Conv3d(96, 96, kernel_size=[3, 3, 3], stride=[1, 2, 2], padding=[1, 1, 1], groups=96, bias=False)
        (norm_v): LayerNorm((96,), eps=1e-05, elementwise_affine=True)
      )
      (drop_path): DropPath()
      (norm2): LayerNorm((384,), eps=1e-06, elementwise_affine=True)
      (mlp): Mlp(
        (fc1): Linear(in_features=384, out_features=1536, bias=True)
        (act): GELU()
        (fc2): Linear(in_features=1536, out_features=768, bias=True)
      )
      (proj): Linear(in_features=384, out_features=768, bias=True)
    )
    (14): MultiScaleBlock(
      (norm1): LayerNorm((768,), eps=1e-06, elementwise_affine=True)
      (attn): MultiScaleAttention(
        (q): Linear(in_features=768, out_features=768, bias=True)
        (k): Linear(in_features=768, out_features=768, bias=True)
        (v): Linear(in_features=768, out_features=768, bias=True)
        (proj): Linear(in_features=768, out_features=768, bias=True)
        (pool_q): Conv3d(96, 96, kernel_size=[3, 3, 3], stride=[1, 2, 2], padding=[1, 1, 1], groups=96, bias=False)
        (norm_q): LayerNorm((96,), eps=1e-05, elementwise_affine=True)
        (pool_k): Conv3d(96, 96, kernel_size=[3, 3, 3], stride=[1, 1, 1], padding=[1, 1, 1], groups=96, bias=False)
        (norm_k): LayerNorm((96,), eps=1e-05, elementwise_affine=True)
        (pool_v): Conv3d(96, 96, kernel_size=[3, 3, 3], stride=[1, 1, 1], padding=[1, 1, 1], groups=96, bias=False)
        (norm_v): LayerNorm((96,), eps=1e-05, elementwise_affine=True)
      )
      (drop_path): DropPath()
      (norm2): LayerNorm((768,), eps=1e-06, elementwise_affine=True)
      (mlp): Mlp(
        (fc1): Linear(in_features=768, out_features=3072, bias=True)
        (act): GELU()
        (fc2): Linear(in_features=3072, out_features=768, bias=True)
      )
      (pool_skip): MaxPool3d(kernel_size=[1, 3, 3], stride=[1, 2, 2], padding=[0, 1, 1], dilation=1, ceil_mode=False)
    )
    (15): MultiScaleBlock(
      (norm1): LayerNorm((768,), eps=1e-06, elementwise_affine=True)
      (attn): MultiScaleAttention(
        (q): Linear(in_features=768, out_features=768, bias=True)
        (k): Linear(in_features=768, out_features=768, bias=True)
        (v): Linear(in_features=768, out_features=768, bias=True)
        (proj): Linear(in_features=768, out_features=768, bias=True)
        (pool_k): Conv3d(96, 96, kernel_size=[3, 3, 3], stride=[1, 1, 1], padding=[1, 1, 1], groups=96, bias=False)
        (norm_k): LayerNorm((96,), eps=1e-05, elementwise_affine=True)
        (pool_v): Conv3d(96, 96, kernel_size=[3, 3, 3], stride=[1, 1, 1], padding=[1, 1, 1], groups=96, bias=False)
        (norm_v): LayerNorm((96,), eps=1e-05, elementwise_affine=True)
      )
      (drop_path): DropPath()
      (norm2): LayerNorm((768,), eps=1e-06, elementwise_affine=True)
      (mlp): Mlp(
        (fc1): Linear(in_features=768, out_features=3072, bias=True)
        (act): GELU()
        (fc2): Linear(in_features=3072, out_features=768, bias=True)
      )
    )
  )
  (norm): LayerNorm((768,), eps=1e-06, elementwise_affine=True)
  (head): TransformerBasicHead(
    (dropout): Dropout(p=0.5, inplace=False)
    (projection): Linear(in_features=768, out_features=10, bias=True)
    (act): Softmax(dim=1)
  )
)
[06/19 19:09:20][INFO] misc.py:  184: Params: 36,310,762
[06/19 19:09:20][INFO] misc.py:  185: Mem: 6.778197288513184 MB
[06/19 19:09:20][WARNING] jit_analysis.py:  499: Unsupported operator aten::repeat encountered 1 time(s)
[06/19 19:09:20][WARNING] jit_analysis.py:  499: Unsupported operator aten::repeat_interleave encountered 1 time(s)
…
